…
                                    - name: tableKey
                                      value: plot_uVent_id_table
                                  fields: []
                                  name: summaryTable
                              name: runSets
                panel_type: Vega2
action_noise:
    value:
        normalactionnoise:
            sigma: 0.05
action_space:
    value: Box(-1.0, 1.0, (6,), float32)
actor:
    value: |-
        Actor(
          (features_extractor): FlattenExtractor(
            (flatten): Flatten(start_dim=1, end_dim=-1)
          )
          (latent_pi): Sequential(
            (0): Linear(in_features=263, out_features=256, bias=True)
            (1): SiLU()
            (2): Linear(in_features=256, out_features=256, bias=True)
            (3): SiLU()
            (4): Linear(in_features=256, out_features=256, bias=True)
            (5): SiLU()
          )
          (mu): Linear(in_features=256, out_features=6, bias=True)
          (log_std): Linear(in_features=256, out_features=6, bias=True)
        )
algo:
    value: SAC
batch_norm_stats:
    value: '[]'
batch_norm_stats_target:
    value: '[]'
batch_size:
    value: 128
buffer_size:
    value: 576100
critic:
    value: |-
        ContinuousCritic(
          (features_extractor): FlattenExtractor(
            (flatten): Flatten(start_dim=1, end_dim=-1)
          )
          (qf0): Sequential(
            (0): Linear(in_features=269, out_features=512, bias=True)
            (1): SiLU()
            (2): Linear(in_features=512, out_features=512, bias=True)
            (3): SiLU()
            (4): Linear(in_features=512, out_features=512, bias=True)
            (5): SiLU()
            (6): Linear(in_features=512, out_features=1, bias=True)
          )
          (qf1): Sequential(
            (0): Linear(in_features=269, out_features=512, bias=True)
            (1): SiLU()
            (2): Linear(in_features=512, out_features=512, bias=True)
            (3): SiLU()
            (4): Linear(in_features=512, out_features=512, bias=True)
            (5): SiLU()
            (6): Linear(in_features=512, out_features=1, bias=True)
          )
        )
critic_target:
    value: |-
        ContinuousCritic(
          (features_extractor): FlattenExtractor(
            (flatten): Flatten(start_dim=1, end_dim=-1)
          )
          (qf0): Sequential(
            (0): Linear(in_features=269, out_features=512, bias=True)
            (1): SiLU()
            (2): Linear(in_features=512, out_features=512, bias=True)
            (3): SiLU()
            (4): Linear(in_features=512, out_features=512, bias=True)
            (5): SiLU()
            (6): Linear(in_features=512, out_features=1, bias=True)
          )
          (qf1): Sequential(
            (0): Linear(in_features=269, out_features=512, bias=True)
            (1): SiLU()
            (2): Linear(in_features=512, out_features=512, bias=True)
            (3): SiLU()
            (4): Linear(in_features=512, out_features=512, bias=True)
            (5): SiLU()
            (6): Linear(in_features=512, out_features=1, bias=True)
          )
        )
device:
    value: cpu
ent_coef:
    value: auto
ent_coef_optimizer:
    value: |-
        Adam (
        Parameter Group 0
            amsgrad: False
            betas: (0.9, 0.999)
            capturable: False
            decoupled_weight_decay: False
            differentiable: False
            eps: 1e-08
            foreach: None
…
