…
': 'None', 'target_entropy': -6.0, 'log_ent_coef': 'tensor([0.], requires_grad=True)', 'ent_coef_optimizer': 'Adam (\nParameter Group 0\n    amsgrad: False\n    betas: (0.9, 0.999)\n    capturable: False\n    decoupled_weight_decay: False\n    differentiable: False\n    eps: 1e-08\n    foreach: None\n    fused: None\n    lr: 0.0007\n    maximize: False\n    weight_decay: 0\n)', 'lr_schedule': '<function constant_fn.<locals>.func at 0x1423cbec0>', 'actor': 'Actor(\n  (features_extractor): FlattenExtractor(\n    (flatten): Flatten(start_dim=1, end_dim=-1)\n  )\n  (latent_pi): Sequential(\n    (0): Linear(in_features=263, out_features=256, bias=True)\n    (1): SiLU()\n    (2): Linear(in_features=256, out_features=256, bias=True)\n    (3): SiLU()\n    (4): Linear(in_features=256, out_features=256, bias=True)\n    (5): SiLU()\n  )\n  (mu): Linear(in_features=256, out_features=6, bias=True)\n  (log_std): Linear(in_features=256, out_features=6, bias=True)\n)', 'critic': 'ContinuousCritic(\n  (features_extractor): FlattenExtractor(\n    (flatten): Flatten(start_dim=1, end_dim=-1)\n  )\n  (qf0): Sequential(\n    (0): Linear(in_features=269, out_features=512, bias=True)\n    (1): SiLU()\n    (2): Linear(in_features=512, out_features=512, bias=True)\n    (3): SiLU()\n    (4): Linear(in_features=512, out_features=512, bias=True)\n    (5): SiLU()\n    (6): Linear(in_features=512, out_features=1, bias=True)\n  )\n  (qf1): Sequential(\n    (0): Linear(in_features=269, out_features=512, bias=True)\n    (1): SiLU()\n    (2): Linear(in_features=512, out_features=512, bias=True)\n    (3): SiLU()\n    (4): Linear(in_features=512, out_features=512, bias=True)\n    (5): SiLU()\n    (6): Linear(in_features=512, out_features=1, bias=True)\n  )\n)', 'critic_target': 'ContinuousCritic(\n  (features_extractor): FlattenExtractor(\n    (flatten): Flatten(start_dim=1, end_dim=-1)\n  )\n  (qf0): Sequential(\n    (0): Linear(in_features=269, out_features=512, bias=True)\n    (1): SiLU()\n    (2): Linear(in_features=512, out_features=512, bias=True)\n    (3): SiLU()\n    (4): Linear(in_features=512, out_features=512, bias=True)\n    (5): SiLU()\n    (6): Linear(in_features=512, out_features=1, bias=True)\n  )\n  (qf1): Sequential(\n    (0): Linear(in_features=269, out_features=512, bias=True)\n    (1): SiLU()\n    (2): Linear(in_features=512, out_features=512, bias=True)\n    (3): SiLU()\n    (4): Linear(in_features=512, out_features=512, bias=True)\n    (5): SiLU()\n    (6): Linear(in_features=512, out_features=1, bias=True)\n  )\n)', 'batch_norm_stats': '[]', 'batch_norm_stats_target': '[]', '_logger': '<stable_baselines3.common.logger.Logger object at 0x145771250>'}
2025-08-22 15:55:16,255 WARNING MsgRouterThr:8837 [router.py:message_loop():63] [no run ID] message_loop has been closed
Traceback (most recent call last):
  File "/Users/fady/anaconda3/envs/greenlight_gym/lib/python3.11/site-packages/wandb/sdk/interface/router_sock.py", line 27, in _read_message
…
